logs/SINPA/DeepPA/64-2-2-True-True-True-True-True-1.0-8-0.001-0-True-True-1/final_model_0.pt (torch, 812797 bytes, 68 tensors)

t_modules.0.pos_embedding f4 [12, 64]
000000 20 3c 6a 3f 77 99 e4 3f 8b 6b ee 3d ba 79 c7 bf
       0.91497993 1.7859334 0.11641606 -1.5584023
000010 7e 05 a6 3e 40 49 fe bd 5c 3f 84 bf fc 84 3a be
       0.32426065 -0.12416315 -1.0331836 -0.18214792
000020 9d f0 a5 3f a4 de b6 bf 4a dc 41 bf 1b ff 69 3f
       1.2964054 -1.4286695 -0.7572676 0.91404885
000030 0e 32 8c 3e 63 e6 98 be fb 2d 1f bf e2 14 d3 be
       0.2738194 -0.2986327 -0.62179536 -0.4122687
000040 7a 5e 56 bf 76 ab 86 3e 12 a0 27 3f 32 1b 91 be
       -0.8373791 0.2630269 0.6547862 -0.2834106
000050 c2 ff f0 be b0 32 b5 bf 3c 87 86 bf d2 8e 0f be
       -0.47070128 -1.4156094 -1.051002 -0.14019325
000060 c7 ba 29 bd d7 dd ce bc 21 c6 96 bf 1c ef e4 3e
       -0.04143789 -0.025252266 -1.1779214 0.44713676
000070 ce 29 6e 3f 90 21 b4 bf 31 0e 73 3f 4c 70 88 bf
       0.9303254 -1.4072742 0.9494353 -1.065927
000080 50 d2 2d 3f fb 91 63 bf 36 f4 b7 3e 83 50 a3 3e
       0.67899036 -0.88894624 0.35928506 0.31897363
000090 4a 96 b0 3f 94 9a 18 bf 6e 2a 99 3f d8 f6 57 3e
       1.3795865 -0.5961087 1.1966074 0.21090257
0000a0 92 05 2d be 27 94 fd 3f 2b 4a 83 3e 69 ef fa 3f
       -0.16896656 1.9810838 0.25642523 1.9604312
0000b0 6d c0 9c 3f 1c 0c 1b 3f a5 ce 76 3e 74 5d c4 3f
       1.2246224 0.6056535 0.24102266 1.534102
0000c0 59 b5 fd be a3 dd 9d 3f 61 04 7c bf 8e b8 02 bf
       -0.4955242 1.2333263 -0.9844418 -0.5106286
0000d0 4c ee e6 3d 10 e3 f4 bf 49 e1 77 3f de 5c 06 c0
       0.1127592 -1.9131794 0.9682813 -2.0994182
0000e0 4d b9 2d 3f 56 94 45 3f bf bf b2 3f ce 65 c0 3e
       0.6786087 0.7717947 1.3964766 0.3757767
0000f0 3d 88 91 3f 85 0b 5e bf 71 7f ca be 29 59 f6 3f
       1.1369702 -0.8673633 -0.39550355 1.924596
000100 10 be 3d 3f 7f ae 3f be e6 a4 af 3e 18 fd c2 bd
       0.7411814 -0.18718909 0.34305495 -0.0952093
000110 30 e2 bb be 6b 30 fe bd 8d a4 50 3d 15 98 fe 3d
       -0.36696005 -0.12411579 0.050938178 0.12431351
000120 b3 fc 56 3d bf 2d f1 be b9 b4 94 be 2c 7e 6f 3f
       0.052487087 -0.47105214 -0.2904413 0.935519
000130 c6 06 99 bf f5 24 e4 3c 89 69 f1 be 74 d3 0a bf
       -1.1955192 0.027849654 -0.4715083 -0.542289
000140 55 b5 b1 3d f6 9f 08 bf 23 67 d1 3f 2f 17 66 bf
       0.086771645 -0.5336908 1.63596 -0.89879125
000150 fc 18 ab 3f 1b 32 e8 be 18 29 84 3d 1c 84 cb bf
       1.3367 -0.45350727 0.064531505 -1.5899692
000160 92 9e e6 3d ce 87 8f 3f 7e e8 85 bf e0 90 be be
       0.11260714 1.1213319 -1.0461576 -0.37219906
000170 8d 94 1b 3e 36 b2 77 bf 4f 11 ba 3e 74 18 82 3f
       0.15193386 -0.96756303 0.3634133 1.0163713
000180 66 be 03 bf 4d b8 0a 3e 2e 79 11 3e 89 0c 6d bf
       -0.514624 0.13546868 0.14206383 -0.9259725
000190 a6 80 9f bd 61 93 71 bf 2e d6 b7 3e c1 d1 98 3f
       -0.077882096 -0.9436551 0.35905594 1.1939012
0001a0 14 af 86 3e e9 e3 76 3e 47 c2 dc bf ce 47 2f be
       0.2630545 0.24110378 -1.7246789 -0.17117235
0001b0 2a 14 50 bf d2 c8 d2 bf 9f 87 c1 be d3 45 11 bf
       -0.8128077 -1.6467535 -0.37798783 -0.5674717
0001c0 1b 4c 4f bf 83 d2 b6 bf 00 52 57 c0 f2 48 85 3f
       -0.809755 -1.4282993 -3.36438 1.0412886
0001d0 61 2f 54 bf a0 13 73 3f c3 2a 4a 3e 7e 1f 12 bf
       -0.82884794 0.9495182 0.19742875 -0.57079303
0001e0 0a ef e7 bd ed dc 22 bf 54 88 8a 3c 1a 0e c8 bf
       -0.1132489 -0.63618356 0.01691071 -1.5629303
0001f0 c4 d8 14 3e 67 e5 cf bf 5f b7 48 bf 83 83 85 bf
       0.14535815 -1.6241883 -0.784048 -1.0430759
000200 e2 81 3d be a1 7b 15 bf a1 3b 3a bf 4f 39 92 bd
       -0.18506578 -0.5839177 -0.72747236 -0.07139837
000210 54 10 ba bf d9 9a 95 be 4a 56 27 3f df 98 c2 3d
       -1.4536233 -0.29219702 0.6536604 0.09501814
000220 d2 95 19 3f f6 29 d6 3e 05 92 b9 3f f2 82 39 3f
       0.5999423 0.4182889 1.4497687 0.7246543
000230 37 6a c2 3e 12 19 63 bf 2a c9 c3 be 3a 11 cc be
       0.3797166 -0.8871013 -0.38239413 -0.39856893
000240 27 f5 bf bf 52 f6 20 40 9c 21 28 3e e6 22 89 3f
       -1.499669 2.5150342 0.16419071 1.0713775
000250 8d e1 0c bf 7a 41 09 40 86 ab 3a bf 29 bd a1 bf
       -0.55031663 2.1446214 -0.72917974 -1.2635852
000260 c6 9f 04 bf 2c 4c 31 bf 00 93 71 3e 21 1c e2 bf
       -0.51806295 -0.69256854 0.23591232 -1.7664834
000270 32 fc a0 bd b5 a3 dc bf c3 a3 df be 2e 55 d9 bd
       -0.078606024 -1.723746 -0.43679628 -0.1061195
000280 5b 28 35 3f 9e 53 4d 3f f6 4b b8 bf 9a 20 a0 3f
       0.707647 0.80205715 -1.4398181 1.2509949
000290 5d 2b b8 bf 7f 44 bc bf bb 4b 50 3f d0 fa 48 bf
       -1.4388233 -1.4708403 0.81365556 -0.7850771
0002a0 1d 41 bb be 47 81 34 3f cd b4 3f 3f f4 74 f5 be
       -0.36573115 0.7050976 0.74885255 -0.4794079
0002b0 b1 5b 19 3e 58 7d 05 bf 7f 51 87 3f f9 aa db 3e
       0.14976384 -0.52144384 1.0571746 0.4290388
0002c0 fc ca 1a 3f b9 4b 33 3f 2f c3 a2 3f 9a e6 ee 3e
       0.6046598 0.7003742 1.2715815 0.4666031
0002d0 cb cd 04 bf d1 a2 81 bf 5f fc 56 3f e1 d1 84 3e
       -0.51876515 -1.0127813 0.8397884 0.25941375
0002e0 34 7e 0b bf e0 14 9d 3e 86 3b 1c 3d 5b 00 bd bd
       -0.54489446 0.3067999 0.038142703 -0.092285834
0002f0 b1 c4 7f be 25 63 60 3f fb 77 4e bf 1b 92 50 3e
       -0.24977376 0.8765128 -0.80651826 0.20368235
000300 4e 54 85 bd 76 ee 29 3f ac 44 04 3f 9d 23 4a 3c
       -0.065102205 0.6637949 0.51667285 0.012337592
000310 ac f3 33 be 98 39 59 be 73 ee 5c 3f ca 22 9c bf
       -0.17573422 -0.21213377 0.86301345 -1.2198117
000320 4f df 34 bf ae 25 89 bf cf f3 9b 3e 10 40 70 bf
       -0.7065324 -1.0714624 0.3045945 -0.9384775
000330 d0 0d f6 3d 9f e6 8f bf a5 53 a1 be fc 9e b7 be
       0.12014353 -1.1242255 -0.31509128 -0.35863483
000340 fa 38 12 bf c1 9f 7a be f8 26 36 bf ed 4d b2 bf
       -0.5711819 -0.24475004 -0.7115321 -1.3930031
000350 85 6c 83 3f b1 9e 82 3e 79 e5 5e 3f cd 04 c1 be
       1.0267493 0.25511697 0.870689 -0.37698975
000360 68 5b 2f c0 e8 62 54 3f 95 75 1c be 81 f5 04 3d
       -2.739954 0.8296342 -0.15279229 0.032460693
000370 17 e0 38 3d 39 ef 4b bf 8b f2 43 bf 11 d5 5e bf
       0.045135584 -0.796619 -0.76541966 -0.87043864
000380 5a 8a e8 3d db 47 a5 be e2 bb 7b 3f c7 b8 9d be
       0.113545135 -0.32281384 0.9833356 -0.30805036
000390 f9 be 88 3e 21 9b e8 bd ed bf be bf 27 a9 1a 3f
       0.267082 -0.113577135 -1.4902321 0.60414356
0003a0 66 e3 44 bf 5e 1a 04 bf 72 ba 18 bf 92 f0 58 bc
       -0.7690948 -0.51602733 -0.5965949 -0.01324095
0003b0 ae ad 1b bd c8 e8 f4 be 9d 33 5d bf 42 2a b2 bf
       -0.03800743 -0.47833848 -0.8640688 -1.3919146
0003c0 b3 8e b0 bf 73 00 8d be 3e 1e d6 3e ea 28 c2 3e
       -1.3793548 -0.27539405 0.41819948 0.3792184
0003d0 36 c0 80 be d1 ae a3 3f 42 e6 b7 bc ef e4 08 3f
       -0.25146645 1.2787725 -0.022448663 0.53474325
0003e0 6d b4 1d 3f 65 db 43 3f d2 9f 2f 3f 8a 6f 3c bd
       0.6160343 0.76506644 0.6860324 -0.04600481
0003f0 b1 b4 b6 bf e1 c4 70 bc 31 6a 11 40 10 6b 9f bf
       -1.4273893 -0.014695377 2.2721064 -1.2454548

t_modules.0.layers.0.0.qkv.weight f4 [192, 64]
000000 ea c5 14 3a f4 2d 0a 3d 29 87 33 be 3f c6 10 3e
       0.00056752434 0.03373523 -0.17532028 0.14138125
000010 5c e9 f4 3d 51 7c 76 3c f2 ff 59 bd 90 3c 2a 3e
       0.11958572 0.015044288 -0.053222604 0.16624665
000020 a2 57 f4 bd cd 2e 1d 3e ef 87 4b 3d d6 67 9f bd
       -0.11930777 0.15349884 0.049690183 -0.07783477
000030 c2 d0 49 3e fd e0 90 3d d8 92 de 3d 12 05 27 3e
       0.19708541 0.07074163 0.10867852 0.16310528
000040 c5 f6 2c be e1 25 db bd 2f 02 32 3e d0 7d a7 bd
       -0.1689101 -0.10700584 0.17383645 -0.08178294
000050 b2 77 f1 3c a4 27 c5 bc 5b 81 f1 3d 80 67 e6 bd
       0.02947602 -0.024066754 0.11792251 -0.1125021
000060 67 ae 2b bd 38 c2 57 3c 9c 92 98 3d bf 3f 88 3d
       -0.04191437 0.013168864 0.074498385 0.066527836
000070 f5 fc dd bc 94 02 43 3e 0c 5b a2 bd ea 7c 75 3c
       -0.027098158 0.19043952 -0.07927522 0.014983395
000080 83 a4 bf bd ce ce de bd f4 81 cc 3d ae 59 a7 bd
       -0.0935755 -0.108792886 0.09985724 -0.08171402
000090 44 00 03 3e d3 7a 00 3d 96 f8 72 bd c7 cb c7 bd
       0.1279307 0.031367134 -0.0593191 -0.09755664
0000a0 fc 56 a9 bb 9b 42 cb 3c a8 99 26 3d 32 2d 1f 3e
       -0.00516784 0.024812033 0.04067388 0.15544584
0000b0 14 f0 1e 3d 4a 2c 78 bd 72 09 30 be e6 33 52 be
       0.038803175 -0.060589112 -0.17191103 -0.2052761
0000c0 1f 2d 42 be 48 21 11 be fa 5d a9 3d 1c 5a 41 3e
       -0.18962525 -0.14172852 0.08269878 0.1888203
0000d0 78 c3 a3 3d f6 bb 9e bc d9 bd 0b 3d de fd 49 3c
       0.07996267 -0.019376736 0.0341166 0.012328593
0000e0 d3 57 e1 bd 5c ec 0f be ce 24 26 bd e1 6e 55 3d
       -0.11003079 -0.14055008 -0.040562443 0.052107695
0000f0 9e 88 12 be 04 72 5a bd 79 38 1b be d4 45 4b bb
       -0.14309928 -0.05333139 -0.15158261 -0.0031016963
000100 ca c9 eb bc 4d cb 18 be 23 0e 08 bd c7 d9 b5 3d
       -0.028782744 -0.14921303 -0.033216607 0.08879428
000110 39 31 85 bb a4 7f 40 bd 84 88 51 bd 80 cf ce 3d
       -0.0040647057 -0.046996728 -0.051155582 0.10098171
000120 c6 0a 87 bc 83 74 26 bd 1d 30 60 b9 0c a3 c9 3c
       -0.01648463 -0.040638458 -0.00021380228 0.02461388
000130 4c f2 b9 3c 3f 56 62 3d 68 c9 87 3d 89 00 c3 3d
       0.022698544 0.055258032 0.06630212 0.095215864
000140 63 5b 02 be 9a 20 e0 3b aa aa de 3c 1a 9f 40 bd
       -0.12730174 0.006839824 0.027180988 -0.04702673
000150 b2 2e d5 bd 46 04 25 be de 14 8b bc 8b 28 52 bd
       -0.10409297 -0.16114911 -0.016977724 -0.051308196
000160 5a 83 a4 bb 65 9f b4 bb 9f 1c bf bd e2 b6 35 3e
       -0.005020541 -0.0055121654 -0.09331631 0.17745546
000170 94 6c e1 bd e0 ab b8 3c a5 db de bd e1 e0 22 be
       -0.11007038 0.022542894 -0.108817376 -0.15906097
000180 a2 cf 0c be dc c9 22 3d 92 d8 41 bd 3f eb 67 bd
       -0.1375108 0.03974329 -0.04732568 -0.056620833
000190 7f aa 45 3d ce c5 40 bd 7b 31 95 3d f4 34 a9 bd
       0.0482583 -0.04706364 0.07284828 -0.08262053
0001a0 7d c4 d1 bd 77 f7 e5 3d c0 59 2e be d8 a6 03 be
       -0.10242555 0.11228841 -0.17026424 -0.12856615
0001b0 5b 9b 4e bc 11 1a e6 3d a5 24 ce bd 93 5f a7 3d
       -0.012610282 0.112354405 -0.10065583 0.08172526
0001c0 e7 08 94 bd fb 89 f0 bd 0f 73 4d bd 70 16 81 bd
       -0.072282605 -0.11745068 -0.050158557 -0.06303108
0001d0 3d 8e d7 bd c2 8c 4d bc 6a 44 2f bb 94 31 82 3e
       -0.10525177 -0.012545766 -0.0026743659 0.2542845
0001e0 14 c1 8d bd 28 a6 ce bd c3 eb ae bd 08 44 f1 3b
       -0.06921592 -0.100902855 -0.08541062 0.0073628463
0001f0 34 32 be bc 15 db c9 bd 40 d0 54 3d 6a ed d3 bc
       -0.023217298 -0.0985624 0.051956415 -0.025870044
000200 27 5c c2 3d 34 a8 8d 3d f7 80 1c 3e ac 5d 6e bc
       0.09490233 0.06916848 0.15283571 -0.0145487
000210 76 41 eb bd 23 56 43 bd 1b b3 79 3c 8e c9 d6 bd
       -0.11487095 -0.04768957 0.015240456 -0.10487662
000220 95 92 9f 3b a3 16 85 bd 61 33 24 bd f2 05 f8 bc
       0.004869769 -0.06498458 -0.04008806 -0.030276272
000230 17 10 ec 3c 83 92 86 3d 01 52 6c bc a9 f4 e0 bd
       0.028816266 0.06570914 -0.014423848 -0.10984165
000240 3a b5 99 3d f4 2c fd 3c 8f bc e0 bd de 73 67 bd
       0.07505269 0.030905224 -0.10973465 -0.056506984
000250 79 7c ad 3d 79 4a 07 be d0 e9 9a 3d 85 7a 5d bd
       0.08471007 -0.13212003 0.075641274 -0.05407192
000260 6f 39 2e 3d 65 ad 25 3c 8d b4 1a bd 83 3f 59 3e
       0.04253524 0.010112141 -0.037769843 0.21215634
000270 e6 9e c8 bd 21 a5 e1 3c ea ff f6 3d 14 a5 c9 3c
       -0.097959325 0.02754456 0.120605305 0.024614848
000280 ef 05 a7 bd 27 30 7b 3d 98 07 f2 bd 17 c0 b3 bd
       -0.081554286 0.06132522 -0.11817855 -0.087768726
000290 d0 91 61 bd ee ab d7 bc cb 6f bc bc 37 75 ba bd
       -0.0550707 -0.0263271 -0.023002526 -0.09104388
0002a0 f1 21 c8 3d e0 bf 1a bc e5 4e b2 bb 74 a4 ab 3d
       0.09772099 -0.009445161 -0.005441534 0.08380976
0002b0 4c 17 43 bc ad 6b 2f bd 26 a6 17 3d e6 90 99 3d
       -0.01190741 -0.042827297 0.037023686 0.0749834
0002c0 8b 93 b6 bd e1 a7 8d 3c eb f0 04 be 54 14 45 3c
       -0.0891486 0.017291965 -0.12982528 0.012028772
0002d0 d2 00 98 3c 71 56 e4 bd 1d 4a 79 3d ce f9 63 bd
       0.018555079 -0.111493 0.060861696 -0.055658154
0002e0 28 09 51 39 66 f7 8b 3b 82 3a fb bd 4b 62 e9 3d
       0.00019935204 0.0042714356 -0.12267019 0.11395701
0002f0 9b f5 12 3e 12 d6 5e bd 55 77 c4 bd fa 03 d2 bc
       0.14351504 -0.054403372 -0.09593073 -0.025636662
000300 f7 28 38 3d f7 25 2c 3e 61 6d 04 3e e3 1c 37 bd
       0.044960942 0.16811357 0.1293235 -0.044705283
000310 fc e3 cd 3c 89 c8 52 bd 80 b3 8b bd aa 3a 33 bd
       0.025133125 -0.051460776 -0.06821346 -0.04375712
000320 61 9a 08 3d 4b 0c 6c 3d 0a 74 96 ba 69 3c ad 3d
       0.033350352 0.05762891 -0.0011478674 0.08458788
000330 a1 49 ec bd 63 69 05 bd a6 9c f8 3d 01 71 ca 3c
       -0.11537481 -0.032571208 0.12139253 0.024712088
000340 01 c2 18 3d 9d c3 7d 3d 15 fc fe bd 92 cf 30 3e
       0.03729439 0.06195413 -0.124504246 0.17266682
000350 63 7f 08 3e d6 7d be 3d 4e ff f3 3b 7f 22 0b bd
       0.13329844 0.09301345 0.007446206 -0.033968445
000360 c1 d4 ed 3c 0c d1 d9 bd 25 68 f4 3d 01 33 48 bd
       0.029032113 -0.10635576 0.119339265 -0.048876766
000370 db 32 78 bd d9 db 74 3d 6f c5 dd 3d e1 20 21 3e
       -0.060595375 0.059779976 0.10828673 0.15735199
000380 1d 1e 8a 3d 8a 1a c3 3d e9 79 a9 bd 98 35 0a be
       0.06744025 0.09526546 -0.08275206 -0.13497007
000390 3a b1 fb 3d 80 f6 5c bd 9e 05 2c be cf f0 c6 bd
       0.12289663 -0.05394602 -0.16799018 -0.09713899
0003a0 9f 35 b8 3d 98 5a e5 bc 50 28 00 3e 52 ad 15 3d
       0.089946024 -0.0279973 0.12515378 0.036542244
0003b0 43 53 b3 bd 72 45 9a 3c 96 96 4f be 14 c3 71 3d
       -0.08756115 0.018831942 -0.20272288 0.05902393
0003c0 98 4c 98 3d f8 35 b2 3d de d4 06 3d 9d 10 3b 3d
       0.07436484 0.087017 0.03291785 0.04567014
0003d0 fe e9 92 bc 07 53 93 bc aa 16 06 be 66 19 6b bd
       -0.017933842 -0.017983926 -0.13094583 -0.05739727
0003e0 15 ac a4 bd 83 42 44 3e 84 b4 78 be 99 50 c4 3d
       -0.080406345 0.19165997 -0.24287611 0.09585685
0003f0 81 aa 55 3d be 63 70 bd 17 d1 02 3e 62 f3 6e bc
       0.05216456 -0.05868887 0.12775074 -0.014584394

t_modules.0.layers.0.0.proj.weight f4 [64, 64]
000000 83 81 12 3c db 21 1d bd 0d 27 20 3d 3c 7e c2 3d
       0.008942011 -0.038362365 0.03909974 0.094967335
000010 91 c9 2a be 7c 24 f8 bb 4b 37 6f 3e 57 e4 7e bb
       -0.16678454 -0.0075727087 0.23360936 -0.0038893425
000020 f3 6e 3d 3c dd 98 2e be 77 92 bd bd 2f 48 23 3d
       0.011562097 -0.170505 -0.092564516 0.03986376
000030 a8 a0 46 3d 04 a0 b0 3d d5 59 b2 bb df 4c 22 bd
       0.048493057 0.086242706 -0.0054428377 -0.03962409
000040 66 53 89 3c 4d a6 13 bc a3 88 bc 3d 0c 97 54 39
       0.0167634 -0.009011817 0.09205749 0.00020274165
000050 ba 60 ee 3d 65 88 c1 bb 93 ee a7 3c f5 95 de bd
       0.11639543 -0.005906152 0.020499503 -0.10868446
000060 2a 06 77 be a3 3f f8 3d 60 7c f1 bc a3 6f 33 3d
       -0.24123445 0.12121513 -0.029478252 0.043807637
000070 7f bb 1f 3b ca 7a 95 3d ec d2 4a 3d 9f 44 28 3e
       0.002437323 0.07298811 0.049517557 0.16432427
000080 2c c1 a8 3d 32 65 e8 3d 3f d9 9b bc 60 b8 82 3d
       0.082399696 0.113474265 -0.01902449 0.06382823
000090 7d 68 b0 bd c6 9f 9f bd 5f 2c 7e be 19 40 c5 3d
       -0.086136796 -0.07794146 -0.24821614 0.09631366
0000a0 ba 53 32 bc a8 b7 93 3d 21 09 f8 bc 1c ab 91 bc
       -0.01088422 0.07212764 -0.03027779 -0.017781787
0000b0 48 03 1e be c6 59 2f 3e 1c 6c 76 3e 80 84 f0 bc
       -0.15430939 0.1712409 0.24064678 -0.029360056
0000c0 6c 93 ba bd b7 06 13 3d e8 aa d1 bc d0 ca 2c be
       -0.0911015 0.035895076 -0.02559419 -0.16874242
0000d0 48 a3 b3 3d 44 c2 01 3c d3 28 2f 3d 42 63 62 3d
       0.08771378 0.007919852 0.042763542 0.05527044
0000e0 78 b5 98 b9 8d cb 24 3e b9 78 66 3d f7 b9 50 3d
       -0.00029126904 0.16093273 0.056267474 0.0509586
0000f0 36 f5 9a bd 49 b0 89 bd c6 f2 77 3c ee 6f 7c bd
       -0.075663015 -0.06723077 0.015133565 -0.061630182
000100 e5 73 fa 3d ac 32 07 bd 6e 5c f9 3c b9 8c 52 bd
       0.122291364 -0.03300731 0.030439582 -0.051403735
000110 31 db 05 3e e9 71 89 3d be 95 a3 3c 80 1a bb bb
       0.13071896 0.0671118 0.019968864 -0.005709946
000120 9c b5 f3 bd b9 b1 8e bd 5a e5 3f 3c b1 3c 6a bd
       -0.118998736 -0.06967492 0.0117123965 -0.057186786
000130 61 1a 0f 3e 1f 1d 8f 3d df c5 87 3c b5 6a 5f 3c
       0.13974907 0.06987976 0.016573844 0.013636281
000140 9c 8b f7 3c ec 9f 89 bd 21 c8 fa bd 46 f5 3b 3e
       0.030217938 -0.06719956 -0.12245203 0.18355283
000150 1c a9 41 bd 72 17 9c bc 85 69 70 3d 31 5a 20 bc
       -0.047280416 -0.019054148 0.05869438 -0.009787128
000160 8b 6b d8 3c 01 a8 24 3d 21 cb 02 3e 55 4f 8f 3d
       0.026418468 0.040199284 0.127728 0.06997553
000170 49 75 f9 bd c0 80 bd 3d 9f cb d6 bc cd 3d ce 3d
       -0.121805735 0.09253073 -0.026220141 0.10070381
000180 c7 ce d5 bd 92 79 11 3e 50 ce 85 bd 16 b0 66 3c
       -0.1043983 0.14206532 -0.065334916 0.014080068
000190 9d a9 cc bc 13 dc 2e ba 71 f5 8e bd b6 ae 06 bd
       -0.024983222 -0.0006670367 -0.06980408 -0.03288146
0001a0 75 32 f8 3d 88 8f 5f bd 09 83 fe 3c 37 22 b4 bc
       0.12118999 -0.05458024 0.031068342 -0.021988971
0001b0 3f 45 1e be 18 48 88 3d d9 d4 0a 3d 48 1d 47 be
       -0.15456103 0.06654376 0.033894394 -0.19444764
0001c0 13 c9 ae 3d e8 02 8c bd 73 90 03 bd c8 7d 3d be
       0.085344456 -0.06836492 -0.03212018 -0.18505013
0001d0 40 06 13 be a8 ff 1c 3d 1e 68 f5 3d 2f ed 48 3e
       -0.14357853 0.03832975 0.119827494 0.19621728
0001e0 16 07 67 bd 22 ef 8b bd f9 8d 2a bd 8a 84 14 bd
       -0.056403242 -0.0683272 -0.041639302 -0.03625921
0001f0 ea c1 05 3d af 79 1e 3d 13 a9 46 be c7 8d dc ba
       0.032655634 0.038690265 -0.19400434 -0.0016826921
000200 15 8c 07 3e db 58 f5 3d 94 47 3b be 8e 52 05 3e
       0.13237031 0.119798385 -0.18289024 0.13019773
000210 88 93 b0 bd 31 08 7f bc 8f b5 15 bd 0c 7b 51 be
       -0.08621889 -0.015565918 -0.0365501 -0.20457095
000220 01 70 04 3d c6 1e 18 3e 24 a0 94 bd 3e 05 b7 bd
       0.032333378 0.14855489 -0.07257107 -0.08936547
000230 8e 67 84 3c 74 52 37 3d a2 54 36 3c 67 af 1f be
       0.01616266 0.044756368 0.0111285765 -0.15594254
000240 36 45 b6 3d b5 08 41 be 4d 20 df bd 59 94 cc 3d
       0.0889992 -0.18850978 -0.10894833 0.099892326
000250 aa 87 28 bd f0 2a 1f 3d 71 3b 0b bd f3 71 3f 3e
       -0.041145004 0.038859308 -0.033992235 0.18695812
000260 13 d7 20 be fc 00 d7 3d 0d 55 40 bb de 00 ef bd
       -0.15707044 0.10498235 -0.002934757 -0.11670087
000270 14 b0 b9 3d f8 e8 ee bb 71 42 c9 3c cb fa 80 3c
       0.09066787 -0.0072909556 0.024567815 0.015744587
000280 a5 d8 a0 bd 2f 2e ef bd c4 58 85 3b 5d 4e 9c bc
       -0.07853822 -0.11678731 0.0040694196 -0.019080335
000290 d2 a8 60 3d 4b b9 b9 bd e1 c3 b9 3d 3e 92 07 bd
       0.0548485 -0.09068545 0.09070564 -0.03309845
0002a0 3e c1 03 3e a6 3c a2 3d c7 94 9d 3d 92 f0 cb 3b
       0.12866685 0.07921724 0.07694393 0.0062237466
0002b0 a5 4b 24 3e 9a 4c da 3d 97 c7 4d be ae 59 b8 bc
       0.16044481 0.10659142 -0.20095669 -0.0225037
0002c0 43 ca 03 bd c5 fe 16 bc 20 46 d5 bd ed b8 9a 3e
       -0.032175314 -0.009216015 -0.10413766 0.30219212
0002d0 cc 42 44 3e e2 be c3 bd bb 47 c3 bd 39 81 16 3d
       0.19166106 -0.095578924 -0.09535166 0.03674433
0002e0 37 70 9d 3d 2c 3a 57 3d 3a 0b 34 3e 40 64 39 3d
       0.07687419 0.05254571 0.17582408 0.04526162
0002f0 e0 2b 78 3e a9 3a 10 be 3e 9d ab 3d 4b a8 df bd
       0.24235487 -0.14084877 0.08379601 -0.10920771
000300 e7 7b 40 be 4d d9 83 3d 78 ac 5c 3e 41 bb 64 bc
       -0.18797265 0.06437931 0.21550167 -0.01396066
000310 e5 02 2e 3e 6f b7 c5 3d 5a 88 63 bd d8 d4 98 bd
       0.16993292 0.09654128 -0.055549957 -0.07462472
000320 4c e4 be bd 51 0f f6 3d d4 ac 1a 3d 86 d1 ae bc
       -0.09320888 0.1201464 0.037762478 -0.021340143
000330 0d 47 8e 3d 97 a6 03 3d c4 ee 46 3c 0a 48 8f 3d
       0.069471456 0.032141294 0.012141887 0.06996162
000340 db 91 81 ba 0d 50 29 bd 68 9a ef bb a1 24 93 bd
       -0.0009885387 -0.041336108 -0.007312108 -0.07184721
000350 fe cc df 3d ca 61 ed 3d 72 e6 55 bc 6a 0f ce bc
       0.10927771 0.115909174 -0.013055431 -0.025153834
000360 df eb 9c 3d 13 9f 11 3d 95 ff e6 bd 11 78 2b be
       0.07662176 0.035552096 -0.11279217 -0.1674502
000370 3f d7 17 3e 76 82 a7 bc 67 a1 7d bd 94 fe 51 be
       0.14828204 -0.02044795 -0.061921503 -0.2050727
000380 37 68 c2 bc bb 88 0c 3e 84 40 1f be 6b f9 d9 bb
       -0.023731334 0.13724034 -0.15551955 -0.0066520474
000390 c9 56 2c 3d 79 29 d1 bd f2 f2 f9 bb 1b 76 8a 3c
       0.042074952 -0.102129884 -0.0076278383 0.01690202
0003a0 39 ed a4 bd 14 4f 88 3c f7 6e e3 3d 57 a8 9f 3c
       -0.08053059 0.01663927 0.11105149 0.01948945
0003b0 8b 7c b8 3c 7a 49 17 be 3a 20 01 3e 6d 7b 61 3d
       0.022520324 -0.14774123 0.1260995 0.05504935
0003c0 87 af 60 3d c0 ec 2e bd 06 35 9e bd 41 84 95 bd
       0.054854896 -0.04270625 -0.07724957 -0.07300616
0003d0 59 b1 20 bd 0c 2c b7 bb 95 82 9c 3d 41 de 4f 3b
       -0.039231632 -0.0055899676 0.07642094 0.0031718167
0003e0 4c aa eb bd a7 c7 73 3b 4b 26 ed bd 19 7d 10 be
       -0.11507091 0.003719786 -0.115795694 -0.14110221
0003f0 20 2b 60 3e 71 92 6b bd 89 60 15 bc e1 14 ae bc
       0.21891451 -0.057512704 -0.009117254 -0.02125019

t_modules.0.layers.0.0.proj.bias f4 [64]
000000 30 bf 36 be 25 99 aa 3d 72 31 50 3c bd 53 62 3d
       -0.1784637 0.08329991 0.012707101 0.05525564
000010 5c ce 61 bd f1 46 cd bc 4b de 86 bc 02 29 c9 3d
       -0.05512844 -0.025058242 -0.01646342 0.09822275
000020 dc 67 90 3c e9 26 8c 3d 8f 1f 47 bc d9 1b 88 bd
       0.017627649 0.06843359 -0.01215352 -0.066459365
000030 5c 77 da 3d fc 57 7c 3e c6 42 93 3d 46 93 0b 3e
       0.10667297 0.24642938 0.071904704 0.13630399
000040 a5 45 97 3c ce 52 3d bd 19 2e 49 bc 6b 1c 50 3d
       0.018465826 -0.046221547 -0.012279057 0.05080835
000050 82 e2 ce bc 4b 14 92 bd fb 27 15 3d 44 b9 83 bd
       -0.025254492 -0.07132777 0.03641508 -0.06431821
000060 11 62 19 3e 8b 9a 92 bd b5 de 51 bd c6 fa 6c 3d
       0.14978816 -0.07158383 -0.05123778 0.057856344
000070 db 1a b8 3d 5a 31 10 3c 5a 2a 84 bd 1f f3 9b bd
       0.08989497 0.008800829 -0.064533904 -0.07614731
000080 df bd 9f bd 77 df a6 3a ed b7 30 3d 4a 8a 0b bd
       -0.07799887 0.0012731393 0.043144155 -0.03406743
000090 43 81 ad 3c e7 e3 bd bc 89 87 6a bd fe 22 f3 bc
       0.0211798 -0.023179961 -0.057258163 -0.029679772
0000a0 3c b8 95 bd fc 72 3e be 09 a1 27 bd d6 41 84 3d
       -0.073105305 -0.1859855 -0.04092506 0.0645787
0000b0 f9 f7 47 bc 2a c0 0f be d2 a7 07 3e 21 22 12 be
       -0.012205117 -0.14038149 0.13247612 -0.14270832
0000c0 2a e1 2a 3d 20 7e dd 3d 42 48 3b bd e4 fb 75 3d
       0.04171864 0.10815072 -0.045723207 0.060054675
0000d0 cf 36 42 3d 55 00 32 be ef 6c fc 3d b9 eb ed 3c
       0.04741555 -0.17382939 0.12325465 0.029043065
0000e0 ca e6 96 bd 14 dc e1 bc 58 17 2a bc f7 08 04 be
       -0.07368238 -0.027570762 -0.010381542 -0.12894045
0000f0 f5 ec ec bc ac 27 c2 bd 2e 06 d2 bd 35 58 1f 3e
       -0.028921584 -0.09480223 -0.10255085 0.15560992

t_modules.0.layers.0.1.norm.weight f4 [64]
000000 1c fa 74 3f 6b d6 7e 3f 3f 56 80 3f 81 99 79 3f
       0.95694137 0.99545926 1.002632 0.97499853
000010 47 b3 84 3f e9 4a 73 3f e3 a6 86 3f 84 dd 85 3f
       1.0367211 0.9503618 1.051968 1.0458226
000020 79 dd 62 3f cd a6 5f 3f d8 12 76 3f f4 b8 59 3f
       0.8861919 0.8736389 0.96122503 0.8504784
000030 c7 4a 77 3f 2b 2a 5c 3f 34 51 66 3f 56 d0 5f 3f
       0.96598476 0.86001843 0.89967656 0.8742727
000040 f1 3c 59 3f 6b cd 6d 3f d1 9c 64 3f 40 ca 87 3f
       0.84858614 0.9289157 0.8930178 1.0608597
000050 fc bc 53 3f a3 8b 4e 3f 09 8d 4f 3f 61 54 86 3f
       0.8271024 0.8068182 0.8107458 1.04945
000060 4a cd 6f 3f 2c b2 92 3f 4a ae 74 3f fb a0 76 3f
       0.9367262 1.1460624 0.95578444 0.96339387
000070 d2 5e 5e 3f 8f ea 5f 3f a2 61 73 3f 20 fc 68 3f
       0.86863434 0.87467283 0.9507085 0.9100971
000080 d8 e4 70 3f ad 05 6d 3f e0 a6 61 3f bd fb 57 3f
       0.9409919 0.92586786 0.88145256 0.843685
000090 00 2d 4d 3f b5 e7 41 3f 88 75 66 3f 83 91 3b 3f
       0.8014679 0.7574418 0.9002309 0.7326891
0000a0 f7 c5 63 3f 22 8d 5b 3f b0 22 60 3f 3b 52 43 3f
       0.88973945 0.85762227 0.8755293 0.7629735
0000b0 f5 cc 3f 3f 57 b9 62 3f 6c 41 6a 3f af 3c 68 3f
       0.74922115 0.88564056 0.91506076 0.90717596
0000c0 9e 2b 67 3f c2 ac 55 3f 82 f3 61 3f 32 d6 60 3f
       0.9030093 0.8346673 0.8826219 0.87826836
0000d0 f0 8c 6b 3f 81 33 59 3f 74 bc 51 3f c7 db 75 3f
       0.9201193 0.84844214 0.8192818 0.9603848
0000e0 f7 91 61 3f 14 c6 66 3f 5b 71 82 3f fb a9 8c 3f
       0.8811335 0.90145993 1.0190843 1.0989374
0000f0 57 ba 7d 3f 0b fc 55 3f cc f1 67 3f 8e 8a 38 3f
       0.9911246 0.8358771 0.9060333 0.7208642

t_modules.0.layers.0.1.norm.bias f4 [64]
000000 6b 69 07 be 03 b3 ac 3d 2d 82 03 be f1 90 91 3d
       -0.13223808 0.08432581 -0.12842627 0.071077235
000010 4e e1 b7 bc 91 32 c5 3d 31 69 40 bc 10 f9 12 3c
       -0.0224463 0.096287854 -0.01174383 0.008970514
000020 8a f9 0e be 6a 3b b1 3d e0 94 60 3d ce b8 7f bc
       -0.13962379 0.086539105 0.05482948 -0.015608026
000030 32 89 71 3d f5 1b be 3d 0b 64 cb 3d aa 1c 53 3d
       0.05896873 0.09282676 0.09931191 0.051541008
000040 db 05 e8 bd 68 66 87 bd af d5 e9 3c 84 c0 00 3c
       -0.11329242 -0.06611329 0.028544275 0.007858399
000050 a2 7f 26 3e f3 6b 1c be 03 74 07 3e b9 c2 c4 3a
       0.16259626 -0.15275554 0.13227849 0.0015011645
000060 e3 32 ec 3c da e6 42 3b c9 19 8b 3a a7 d2 50 3c
       0.028832858 0.002973965 0.0010612543 0.012745536
000070 b8 1c bf 3d 56 6f 39 bd 14 fd 9c 3d 2b 9c bd 3d
       0.093316495 -0.045272194 0.07665458 0.09258302
000080 51 70 95 bd 07 f7 1f bd f4 44 d0 3d 56 ee 4a be
       -0.07296813 -0.039053943 0.10169402 -0.1981748
000090 7f 47 db 3d 8f 2c ba bd ac 82 12 bd 4b 3e 9e bd
       0.10706996 -0.0909053 -0.03576915 -0.07726725
0000a0 cf 1c 9c 3d ad 67 1d be dc cd 2f 3d 18 ad cc 3d
       0.07622682 -0.1537158 0.042920932 0.099939525
0000b0 b0 d8 04 3e 71 17 98 bd f6 8c 5c bc ba 33 b6 bd
       0.12973285 -0.07426346 -0.013461342 -0.08896585
0000c0 c6 22 01 be 1b c7 cf bd 41 f5 a5 ba d9 44 a4 3d
       -0.12610921 -0.10145398 -0.0012661592 0.08020944
0000d0 a1 a5 87 3d 0b 8f 8b bd 7e 6e 02 bc 43 b4 b0 bc
       0.06623388 -0.06814393 -0.007960914 -0.02157033
0000e0 51 1b 62 be 63 fc 85 bd a7 a4 60 bd 65 2e 22 3d
       -0.22080733 -0.065422796 -0.054844525 0.039595027
0000f0 6d b0 22 bd ad c7 6d bd 93 ba 9b bd 4a 73 52 3e
       -0.039719034 -0.058051754 -0.076039456 0.20551792

t_modules.0.layers.0.1.fn.net.0.weight f4 [128, 64]
000000 47 48 5b 3d cf a0 a7 3c 63 24 e5 bc ed bf fb 3c
       0.053535726 0.020462422 -0.027971452 0.030731166
000010 67 11 df 3b eb 9e b6 3d b8 2c 82 3d 06 5c de bc
       0.0068074944 0.0891703 0.06356186 -0.02714349
000020 f5 1a 24 be 24 af 63 3d 19 7a ee bd af 45 37 be
       -0.16025908 0.05558695 -0.11644382 -0.17897676
000030 ea e2 27 bd ec 2d 4d bb 34 2b 79 bd af f3 a2 3c
       -0.040987886 -0.003130789 -0.060832217 0.019891588
000040 d6 2c 86 3d 48 76 42 bd 01 f6 db bd aa 06 2a 3e
       0.065515205 -0.047476083 -0.10740281 0.16604105
000050 fb d5 43 3c 70 87 9c 3d a3 69 1d 3d c4 31 ae 3d
       0.011952872 0.0764302 0.03843082 0.08505586
000060 fb af 2a bc 70 8c 88 3d 10 a6 af bd bf 0f 02 3d
       -0.010417934 0.06667411 -0.08576596 0.031753298
000070 45 e0 5c 3d bb be 45 bd 3e 5b c8 3c 01 97 86 bd
       0.053924818 -0.048277598 0.02445757 -0.065717705
000080 76 91 a2 bd 65 7a 89 bd 95 b6 f1 3d b1 c2 f1 3d
       -0.07937901 -0.06712798 0.11802403 0.118047126
000090 a2 21 88 3d 15 17 2a 3d df f1 e3 bd bb cf b5 3d
       0.0664704 0.04152592 -0.111301176 0.08877512
0000a0 bf b0 aa 3d 25 26 08 be db 84 e7 3d d1 2c c5 bd
       0.08334493 -0.13295801 0.11304637 -0.09627689
0000b0 20 56 0c bd 7c c3 ba 3d 50 27 90 3d e0 78 d5 3d
       -0.034261823 0.09119317 0.07038748 0.10423446
0000c0 2c 7a 09 3e 15 db 9d bd f4 d0 15 3e 1c 7d 2f 3d
       0.13425511 -0.07707802 0.1463049 0.042843923
0000d0 ca 29 0e bd 41 46 ca 3d 11 52 6a 3d ea 3a 4f bd
       -0.034707822 0.09876681 0.05720717 -0.050593294
0000e0 e5 13 ca 3d 55 a0 ae 3d 7e 63 92 3d b5 04 66 bd
       0.09867076 0.08526675 0.07147883 -0.056156833
0000f0 f8 63 fd 3d 3d c0 77 3c 2f 0b cf 3d a8 50 6f 3d
       0.12372583 0.015121517 0.10109555 0.05842653
000100 6e c7 59 bd c5 96 54 be 6b 01 88 3d e2 58 fc ba
       -0.053168707 -0.20760639 0.066408955 -0.0019252563
000110 18 08 59 3d 04 0d 4b 3b 47 97 01 3e f9 08 27 3e
       0.052986234 0.00309831 0.12655364 0.16312017
000120 20 6d a4 be 79 49 1f bd 81 fd 3b bd 41 9c 70 be
       -0.32114506 -0.03888843 -0.045896057 -0.23497106
000130 a2 6d 12 3e a4 54 f7 3d b6 b6 ba 3d 99 77 d4 3d
       0.14299634 0.12076691 0.091168806 0.10374374
000140 8d 2f 07 be 1f 79 0b 3b 7f 09 58 bc c5 a8 7c 3c
       -0.13201733 0.002128191 -0.013185858 0.015421097
000150 9b fe 8a 3d f1 01 1c be 78 fd b5 3d 41 67 06 3e
       0.067868434 -0.15235116 0.08886236 0.13125326
000160 67 e0 6b 3e 7e ce 79 3e 78 d0 8e bd a4 cd 19 be
       0.23034821 0.24395177 -0.06973356 -0.15019852
000170 08 d5 d9 3c e3 93 c3 3d f7 53 64 3e d6 10 76 be
       0.026590839 0.095496915 0.22297655 -0.2402986
000180 d9 f0 a8 bd 6c ae b4 bc cf 7a aa 3d 7f 87 5c bd
       -0.08249063 -0.022055827 0.08324205 -0.053840157
000190 a6 fb a3 3d 4e 24 e1 3c 81 eb 00 3e 77 17 8c 3d
       0.080069825 0.027483132 0.12589838 0.06840413
0001a0 28 7d d7 bc a1 a1 c0 bd 9d 12 9b bc 2e 63 c3 bc
       -0.026304796 -0.09405828 -0.018929774 -0.023851003
0001b0 ce fc c0 bc 18 fa 07 3e a6 68 e3 bd b4 cf 74 ba
       -0.023558047 0.13278997 -0.111039445 -0.00093388115
0001c0 e9 00 bd bd a0 f2 1a bd fd 6e 47 3e 98 4e 3d 3d
       -0.09228689 -0.03782904 0.19475932 0.04621753
0001d0 5a f1 3a 3d 08 eb 40 be d8 4d b5 3d 0e 2a 15 3e
       0.045640327 -0.18839657 0.08852738 0.14566824
0001e0 ba 36 34 3e ea 9e 29 bb 00 aa 80 3d 30 e0 7b be
       0.17599002 -0.0025882074 0.06282425 -0.2459724
0001f0 66 53 cc 3d e7 59 a9 bc 66 8c c5 bd 8e 14 e8 3d
       0.099768445 -0.020672752 -0.096459195 0.113320455
000200 26 54 9a 3d 2a a7 b9 bc e4 88 9c bc 7a ed 95 3d
       0.07535581 -0.022662718 -0.019108243 0.07320686
000210 40 7e 38 3d 52 f0 fd 3d cc ef ff bd c0 61 02 3c
       0.045042276 0.12399353 -0.124969095 0.007957876
000220 aa 0e 97 bc 63 c0 9f bd 51 91 1d 3e e7 46 92 bc
       -0.01843961 -0.07800367 0.15387465 -0.017856074
000230 fb 18 06 3d 13 9e b3 bd c3 48 84 3d db 20 92 3d
       0.032738667 -0.08770385 0.06459191 0.07135173
000240 ff 91 74 bb 1f 80 33 3d e8 04 ec 3c 53 8a bb bd
       -0.0037318466 0.043823358 0.028810933 -0.091572426
000250 00 51 04 3d 20 49 b9 3c f1 af d5 bc 16 cb 90 bd
       0.03230381 0.022617877 -0.026084872 -0.070699856
000260 5b eb 48 bd b5 b6 32 bd e3 bd d4 3d 11 2a 2c 3d
       -0.049052577 -0.043631274 0.103877805 0.042032305
000270 f2 0a 90 3d b3 bf 69 3c 78 22 7e bd 25 47 67 bd
       0.07033338 0.014266896 -0.06204459 -0.056464333
000280 c8 25 04 be 38 19 c7 3c 9e fd fa 3c c8 9d 8e 3d
       -0.12905037 0.024304017 0.030638512 0.06963688
000290 cb e7 9a bc 15 e5 51 bd 73 fc 84 3d fa 99 9a 3c
       -0.018909356 -0.05124386 0.06493463 0.01887225
0002a0 9a 4e eb bd 13 8b b0 3d 8d 5c 89 bd 24 92 a7 bd
       -0.114896014 0.08620276 -0.06707106 -0.08182171
0002b0 c2 21 5a bd 99 5a 40 bc 25 26 0f 3e 56 da 77 3d
       -0.05325485 -0.01174035 0.13979395 0.060510956
0002c0 28 ac cf bd 48 52 5b 3d aa 94 4f 3d 53 0b 13 3e
       -0.10140258 0.053545266 0.050678886 0.14359789
0002d0 f6 0c d8 3d 72 74 1d be f9 27 33 bd 46 91 fb 3d
       0.10549347 -0.15376452 -0.043739293 0.12283568
0002e0 20 b4 96 3c d9 6d 6a 3d 44 49 58 bd bb 96 7c bd
       0.018396437 0.057233665 -0.052804247 -0.061667185
0002f0 24 10 c4 3d 7c 79 02 3e 20 f0 21 be af 5b c8 bc
       0.09573391 0.12741655 -0.15814257 -0.02445778
000300 6f fe 16 bd 7e 3d f4 bd 22 09 1a 3c 88 ac 25 be
       -0.03686374 -0.11925791 0.0094015915 -0.16179097
000310 e9 a5 16 be 4d e6 12 3d 76 1a 88 bd 1a 42 30 3e
       -0.14711727 0.035864163 -0.06645672 0.17212716
000320 96 e6 a7 3d 23 73 da 3d b5 90 0f bd d4 38 70 3d
       0.08198278 0.10666492 -0.035050113 0.058647946
000330 80 87 b5 3c 7c c3 8a bc 05 88 03 3e fc 33 0b 3e
       0.022159338 -0.016938917 0.12844856 0.13594049
000340 f7 6a 94 3d 32 6b 1f 3d 55 08 fc bc 7a 0e c6 3d
       0.072469644 0.03892059 -0.030765692 0.0967073
000350 99 c2 90 bc f7 97 9d bd 9c c0 09 3e 94 ad e9 3d
       -0.017670916 -0.076950006 0.13452381 0.114100605
000360 8a 47 c1 3d 99 0a b2 3d de 57 c5 bd 03 72 82 3c
       0.09437473 0.086934276 -0.096359 0.015923506
000370 63 df 16 3d bb 14 b6 bd cb 7d 16 3e 63 79 1f 3d
       0.036834132 -0.08890673 0.14696424 0.038934123
000380 ea 5b e3 bc cb 5f de bd ce 97 65 3e 3b 1a 48 bd
       -0.027753789 -0.10858115 0.2242119 -0.04885314
000390 3f 43 83 3c 76 e4 43 3d 91 48 44 3e 69 ec 81 bd
       0.016023276 0.0478253 0.19168307 -0.0634392
0003a0 e0 a6 6f bd 23 db 71 bd 07 40 65 ba 5f 5f ac 3d
       -0.058508754 -0.059046876 -0.00087451976 0.08416628
0003b0 9a e5 ac bd df 8e 23 bd 3d 98 80 bc 9b 11 03 be
       -0.084422305 -0.039931174 -0.015697593 -0.12799685
0003c0 72 e1 92 3d e8 46 c1 bd ea 16 7e 3d ea bf b8 ba
       0.071719065 -0.094373524 0.06203357 -0.0014095281
0003d0 62 c8 8b bd be 2f bf bd 2f 3f b1 3d 2d a5 d8 3d
       -0.06825329 -0.09335278 0.086546294 0.1057838
0003e0 47 fd b5 bd aa be f0 3c a6 87 9f bd 5c 05 60 bd
       -0.088861994 0.02938779 -0.07789545 -0.05469261
0003f0 56 ca 6e 3d c9 05 80 bd 03 a3 9c 3d 87 b0 c1 bd
       0.05829843 -0.062511034 0.076482795 -0.09457498

t_modules.0.layers.0.1.fn.net.0.bias f4 [128]
000000 e1 cf 18 3d ee c6 0c bd 9b a3 3a 3d 18 48 f3 bd
       0.037307624 -0.0343694 0.045566183 -0.11878985
000010 18 37 48 be ce 47 4e bd 07 d3 91 bd 05 bd 5e 3d
       -0.19552267 -0.050361447 -0.071203284 0.05437948
000020 58 92 55 be 6c 0f 7a 3d c4 20 bc bc bb 67 2e be
       -0.20856607 0.061049864 -0.022964843 -0.17031758
000030 93 0a f0 bd 59 8d 2b 3d a6 98 7f 3d 91 45 ba bc
       -0.11720767 0.041882847 0.062401436 -0.02273825
000040 f7 e9 8b bd 38 1b 45 3b a2 4c 7f bd e4 78 d8 bb
       -0.06831735 0.0030076038 -0.062328942 -0.006606208
000050 8d b0 b0 3c 07 f4 ec bd b2 b7 18 be 65 ef 60 3d
       0.021568561 -0.11569982 -0.14913824 0.054915804
000060 64 4e 4f 3c f8 b6 03 3d a8 62 8a bb b6 21 18 3d
       0.012652967 0.032156914 -0.0042231865 0.037141524
000070 59 4a cf bc 2d 68 d7 3b 99 d8 b5 bd a9 40 ef bc
       -0.025304006 0.006573698 -0.08879203 -0.029205637
000080 04 50 85 3d c0 3e 3a 3d af bb f5 bc 49 e0 49 bd
       0.065094024 0.04547 -0.029996721 -0.04928616
000090 e4 12 18 be 70 8a a6 bd 83 57 fe bb a6 17 b5 bd
       -0.14850956 -0.081318736 -0.007761897 -0.08842401
0000a0 68 e6 23 be fb 39 25 bb 0d c2 54 be 25 87 c5 bd
       -0.16005862 -0.002521156 -0.2077715 -0.096449174
0000b0 5f 49 f6 bd d1 d3 b6 bd c8 3a 94 bd 85 43 4e be
       -0.12025713 -0.089271195 -0.07237774 -0.20142944
0000c0 73 65 08 be 4f 3c 02 be b9 60 02 3d 8a dc 30 be
       -0.1331995 -0.12718318 0.031830523 -0.17271629
0000d0 99 b3 90 bd 42 2b 88 bc 44 86 e0 3d 5a 3b b9 bd
       -0.070655055 -0.01662219 0.10963109 -0.090445235
0000e0 94 18 c0 bd 3b 17 45 bd 2a 42 c9 3c cf 21 20 be
       -0.09379688 -0.048117857 0.024567682 -0.15637897
0000f0 7a cb 00 be e9 8e fa bd 58 0b cf bd f1 47 45 be
       -0.1257762 -0.12234289 -0.101095855 -0.19265725
000100 1e b1 52 3d 75 5e a2 bd f5 75 3b bb c1 9f 9c bd
       0.051438443 -0.079281725 -0.0028604243 -0.07647658
000110 62 e2 b4 bd df c0 67 bd 4f 11 6b 3c 8c 85 ea bc
       -0.088322416 -0.05658042 0.014347388 -0.028628133
000120 50 5c 19 3d 19 43 ad bd 08 92 17 be ec d1 d5 bc
       0.03744155 -0.084600635 -0.148018 -0.026101075
000130 ba 83 a0 bd 09 54 1d bd a0 21 18 3d 8a fc e9 bd
       -0.07837625 -0.03841022 0.037141442 -0.11425121
000140 c0 38 90 3c 7c 1d 02 bd 36 9e 15 3c db 01 28 bd
       0.017605186 -0.0317664 0.009131959 -0.041017395
000150 c5 55 83 3d 5e 45 e1 bd c8 c9 89 3d 8c 21 1a 3d
       0.064128436 -0.10999559 0.0672794 0.03762965
000160 d0 4e 88 3d 75 32 29 3d 4c e9 63 3d a0 2b 1e be
       0.06655657 0.041307885 0.05564241 -0.15446329
000170 7b 4f ba bd 4e 1c 12 be da 6f 9c bd 5b dd 48 bd
       -0.09097191 -0.1426861 -0.076385215 -0.049039226
000180 e4 6f 7e bd f8 e2 9b 3d f8 ae 02 be 02 1e 0b 3b
       -0.062118426 0.0761165 -0.12762058 0.0021227603
000190 cc dd f2 bd c5 0d 08 be 53 cb c7 3c 17 ea a8 bd
       -0.11858711 -0.13286503 0.024388945 -0.08247774
0001a0 a4 04 4a 3d 19 eb 5c bc 6c 4a b2 bd 21 f7 31 be
       0.049320832 -0.013483786 -0.08705601 -0.17379428
0001b0 91 6f 22 be 06 06 f1 bd 61 90 55 3d 0f f0 86 bc
       -0.15862872 -0.11768727 0.052139644 -0.01647189
0001c0 e0 e3 84 3c 13 02 f9 bc eb 06 3d bd 9b 7f e5 bd
       0.01622194 -0.030396497 -0.046149176 -0.112059794
0001d0 21 d4 48 bd 35 bc b6 bd 2e b7 09 be 77 28 97 bb
       -0.049030427 -0.089226164 -0.13448784 -0.004612978
0001e0 c7 11 61 3c 41 53 05 be c4 d0 c6 bd df d8 d6 3d
       0.013737149 -0.1302004 -0.09707788 0.10490584
0001f0 bf cc 32 be 55 da 8d bc b5 9d a0 bd b9 5b 1f be
       -0.17460917 -0.017316023 -0.0784258 -0.15562333

t_modules.0.layers.0.1.fn.net.3.weight f4 [64, 128]
000000 8f 28 86 3d a0 fa c9 bc df 56 11 be d2 30 78 3d
       0.06550705 -0.02465564 -0.14193295 0.060593434
000010 16 14 a1 3e e6 e3 8b 3d 23 39 94 bd 5d c7 d5 3d
       0.31460637 0.068305776 -0.072374605 0.10438416
000020 ce ad 55 3c c8 b9 bc 3d f2 22 ba 3d 4c 50 07 3e
       0.013041927 0.092151225 0.090886965 0.13214225
000030 97 3a d1 bd aa cc af 3d ae 78 8a bd 3c 28 90 ba
       -0.10216253 0.085839584 -0.06761299 -0.0010998319
000040 11 43 83 3d 4c b6 d8 bc 92 ff 35 bd a5 43 30 3d
       0.06409276 -0.026454113 -0.044433184 0.04303326
000050 8f 6d dc bc 42 57 0d be f9 68 ee 3c e9 cc 3c be
       -0.02690771 -0.13802817 0.02910279 -0.18437542
000060 d0 02 cf bd 20 13 0c 3d 9f 05 0c 3d a8 ba 12 be
       -0.10107958 0.034197927 0.03418505 -0.14329016
000070 69 b3 d6 bd 0b bf 2e be f2 3d 08 3e 58 fa f2 3c
       -0.104834385 -0.17065065 0.1330488 0.029660389
000080 a7 dc 37 be da 2b 99 3d 94 01 b6 bc e4 d5 8b 3d
       -0.17955266 0.07479067 -0.02221755 0.06827906
000090 22 e9 4e bc bf fe f8 3c ef 72 b2 3d 57 5e aa bc
       -0.012628825 0.03039491 0.08713328 -0.020796938
0000a0 be da fc 3d 49 20 a2 3e 11 e8 0d b9 5d 9b b6 bd
       0.12346409 0.31665257 -0.0001353326 -0.08916352
0000b0 21 a8 ec bc 31 5f a0 bd fb 9f 9a 3d 79 10 af 3d
       -0.028888764 -0.07830656 0.07550045 0.08548064
0000c0 7f 66 eb bd c8 e2 e5 3d e9 f7 c0 bd 3c dc 00 3e
       -0.11494159 0.11224896 -0.09422285 0.12584013
0000d0 a2 f4 e5 3d 5b 6f bb ba 3d d6 5e be aa 99 0b 3d
       0.11228301 -0.0014300154 -0.21761413 0.034082092
0000e0 92 ab 79 be bd ad 16 be 12 11 b2 3c 43 2c 7d bc
       -0.24381855 -0.14714713 0.021736655 -0.015452447
0000f0 32 7f 1a 3d 51 9b 2c be c1 28 c3 3d 3e 4a 39 3d
       0.03771896 -0.16856124 0.095292576 0.04523682
000100 28 c2 10 38 9f ce b2 3d ba 3e cf bc 3f 20 70 bd
       3.4513097e-05 0.08730816 -0.025298465 -0.058624502
000110 8a c8 44 bc 0d 86 19 be c9 af 04 be 58 51 65 3e
       -0.012010703 -0.14992543 -0.12957682 0.22394311
000120 be a7 bb 3d 84 b3 c6 3b 21 75 5a be c0 c1 38 bd
       0.09162854 0.0060638804 -0.21333744 -0.04510665
000130 33 89 ad 3d 88 4a cf bd 9a 74 72 3a 60 7c 8d bd
       0.08473434 -0.101216376 0.00092489424 -0.06908488
000140 20 ea 0d 3c 1c 49 2a be 18 c7 b1 bd fa 97 9c be
       0.008661777 -0.16629452 -0.08680552 -0.305847
000150 04 42 23 3d 79 24 01 be f8 80 fd bd aa 70 6a be
       0.03985788 -0.1261157 -0.123781145 -0.2289454
000160 27 b0 1c 3e 1b d5 23 be ae 00 80 bd f9 c9 b8 3d
       0.15301572 -0.15999262 -0.0625013 0.09022898
000170 e4 83 95 bd 20 a6 0b 3e fb 39 b8 3c 8e d3 33 3d
       -0.07300547 0.1363759 0.022488585 0.043902926
000180 a9 31 ae 3d e6 5c 41 be fa fa 45 3d c6 9f 46 be
       0.08505566 -0.18883094 0.048335053 -0.19396886
000190 d0 77 41 3e fd bc 44 bd d5 fb 06 bc 20 c8 69 3d
       0.18893361 -0.048031796 -0.008238752 0.05707562
0001a0 ab 63 bd bc 94 df 48 be f8 1f 35 be c7 29 ed 3d
       -0.023118814 -0.19616538 -0.17687976 0.11580234
0001b0 a0 43 e3 bc 7d 33 2b 3e c6 66 a5 bd 6d 22 59 bd
       -0.027742207 0.1671886 -0.08076243 -0.053011347
0001c0 9c 7d cd 3c 4d 43 90 be 40 cc 6a 3d 84 21 61 3d
       0.02508431 -0.28176346 0.057323694 0.054963604
0001d0 98 07 4f 3d 54 b5 3c 3d 8f 57 fe bd bf e4 99 bd
       0.05054435 0.046071365 -0.12419044 -0.07514333
0001e0 b1 52 12 3e 2a 02 1c 3e 86 28 15 be 1b 72 53 bd
       0.14289357 0.152352 -0.1456624 -0.05162249
0001f0 54 46 6f bc 01 aa 72 bd d8 d8 a7 bd ee 20 9c 3d
       -0.01460417 -0.05924416 -0.081956565 0.07623468
000200 cf ed 8d 3d 1a 10 1a 3d ad 13 81 3c e3 30 a9 3d
       0.06930124 0.037613012 0.015756452 0.082612775
000210 27 3a 16 3c 91 27 a6 3d d6 9f 95 3c 79 d2 70 3c
       0.009169138 0.081130154 0.018264692 0.014698618
000220 62 0a 96 3d a4 f4 63 bd 60 bc 56 bc 65 bf b9 3d
       0.07326199 -0.05565323 -0.013106436 0.09069709
000230 42 c5 00 bd 16 e1 24 be bc 43 0f bc b1 f9 10 bd
       -0.03143812 -0.16101488 -0.0087441765 -0.035394374
000240 32 14 4a bb f5 bd ad ba f8 b8 f1 3b 0d d9 6d bd
       -0.0030834791 -0.0013255464 0.0073767863 -0.058068324
000250 ed 24 c0 bd 4f 0d ee 3d d6 2e 25 3d d3 b8 e0 3c
       -0.09382043 0.11623632 0.04032787 0.027431881
000260 c2 2b e7 bd 27 d8 d6 bc 63 4f 96 bd c9 a9 c7 bd
       -0.11287643 -0.026226116 -0.073393606 -0.09749181
000270 4e 3d a8 bc f0 b2 27 bd 66 40 4c 3d 41 70 1c 3e
       -0.020537045 -0.040942132 0.049866103 0.15277196
000280 55 82 69 bd 02 0d ee 3c af 23 59 3c 4f 9c 92 bc
       -0.05700906 0.029058937 0.013253137 -0.0178968
000290 19 bb 80 3d 70 08 16 3c 3c c0 5f bd 2b fa 98 bd
       0.06285686 0.009157285 -0.05462669 -0.07469591
0002a0 e9 12 17 bd 35 40 20 bd e4 32 dc 3d 27 86 a4 3c
       -0.03688327 -0.039123733 0.10751894 0.0200835
0002b0 ba b7 7f 3d b6 9a 86 bd 40 41 7b bd 48 50 47 3d
       0.062431075 -0.065724775 -0.061341524 0.048660547
0002c0 17 3e 33 bd 18 b9 25 3d 4f 9e c0 3d e7 37 a5 3d
       -0.043760385 0.040459722 0.09405195 0.08067303
0002d0 b8 33 8e 3a 98 9c ec bc 9e 37 23 3d 79 30 da bd
       0.0010849154 -0.028883263 0.039847963 -0.10653777
0002e0 d8 14 9a bd 1f 3c 80 bc e9 a2 5b bd ac b9 b2 3d
       -0.07523507 -0.015653668 -0.05362216 0.0872682
0002f0 61 91 c4 bc 8a 5a da 3b 6a 3c 49 be 97 19 93 3d
       -0.023995103 0.006663625 -0.19651952 0.07182615
000300 96 1e 13 bd ed 8d 39 bc 25 59 16 3c 45 a8 53 bd
       -0.03591784 -0.011325342 0.009176527 -0.051674146
000310 a6 48 13 be 4f 67 b6 3d 7d 5d 2b bd 1b 8c 8a 3d
       -0.14383182 0.08906423 -0.041837204 0.06765004
000320 00 57 5a bd b9 5d f2 bd a2 2c ca bc 59 fe 5a 3d
       -0.053305626 -0.118342824 -0.024679486 0.05346522
000330 d1 81 b2 3d fe 80 2c 3d d7 68 24 bd b7 f7 00 be
       0.08716167 0.042115204 -0.040139046 -0.12594496
000340 d8 0b 8d 3b 1e 18 3b bb 29 0d 43 3d 42 b6 52 3d
       0.0043043904 -0.002854831 0.047619972 0.051443346
000350 20 07 d2 bd e2 92 bb bd fd 10 70 3c 99 67 dd 3c
       -0.10255265 -0.09158875 0.014652488 0.027026938
000360 5b 6a 48 bd d8 48 a6 3c 96 78 00 bd b2 10 83 ba
       -0.048929553 0.020298406 -0.031365 -0.0009999482
000370 ab c4 11 3d 20 f7 af 3d c3 6c 07 3e 60 60 9e bd
       0.035587948 0.08592057 0.13225083 -0.07733226
000380 6a da b4 3d e8 d4 45 bb 4d 80 8e 3d 30 09 a2 bc
       0.08830722 -0.0030186716 0.06958065 -0.019779772
000390 cb 8c e8 bd 28 d0 84 bd 24 f6 c6 bd 5f 0c 3d be
       -0.11354979 -0.06485015 -0.09714916 -0.1846175
0003a0 ea 24 93 bd d8 89 81 3c c1 a1 8a 3d 0f dd ad bd
       -0.07184775 0.0158128 0.06769133 -0.08489429
0003b0 c5 36 89 bb c9 49 85 3d 60 3e 89 3d 28 4b 1c bd
       -0.0041874372 0.06508214 0.0670135 -0.038157612
0003c0 1a 90 7d bd 0c 0e 4c bc 2c 98 94 39 30 02 12 3a
       -0.061905004 -0.012454521 0.00028342137 0.0005569784
0003d0 31 cc 09 bd b0 e0 75 3d 4c 3c bb 3c a1 ee 16 3d
       -0.033641998 0.06002873 0.0228559 0.036848668
0003e0 8f 46 03 bc c6 e6 46 bc 9f 81 d4 3d 7f fb 7c 3d
       -0.008012428 -0.012139982 0.10376286 0.061763283
0003f0 06 cc 45 3d 65 77 fe 3c f3 b6 0d bc a5 80 44 bd
       0.048290275 0.031062791 -0.0086495755 -0.047974247

t_modules.0.layers.0.1.fn.net.3.bias f4 [64]
000000 d1 c7 fd bd 97 7b bf bd c3 b5 43 3d de f7 0e ba
       -0.123916276 -0.09349745 0.047780763 -0.0005453805
000010 db 5d 90 3c 1b 3e a6 3d 25 9d a7 bd 23 3c a6 3d
       0.017622879 0.081173144 -0.0818427 0.08116939
000020 aa 2f f6 bd fd 92 4b bc 35 a1 12 bc b1 0a 64 3d
       -0.1202081 -0.012425181 -0.008949568 0.05567426
000030 91 f4 4a bc c6 bf 3e 3e 0c 54 57 3d fa 52 32 3c
       -0.012387411 0.18627843 0.052570388 0.010884041
000040 92 e8 54 bc 30 77 3a be 40 12 97 bc 6c 47 49 3c
       -0.012994902 -0.18209529 -0.01844132 0.012285095
000050 0c a1 8e 3c 7f 7f c8 bb d4 a0 30 bd 57 a3 1d bd
       0.017410778 -0.0061187143 -0.043122128 -0.03848585
000060 1d 1d be 3d 85 0c 1f 3d 0c 5f 85 3d c2 4f 44 3d
       0.09282897 0.0388303 0.065122694 0.047927625
000070 46 ee 0b bd 85 81 17 bd 72 51 ab 3c a3 a8 4c bd
       -0.034162782 -0.036988754 0.02091286 -0.049965512
000080 fa af d5 3b f0 e7 d2 bc 69 3d 2b bc 9e 6f 9c 3c
       0.006521222 -0.025745362 -0.010451653 0.019096192
000090 7f 15 17 3c 3c 80 9b 3d 00 e8 b8 bd a9 8d 52 bd
       0.009221434 0.07592818 -0.090286255 -0.05140463
0000a0 5c 86 9c 3d d6 23 df bd da 03 4f bd 1e 13 22 3d
       0.076428145 -0.10895507 -0.050540783 0.039569013
0000b0 e6 4e 6b 3d 52 12 76 3d ed a9 e7 bc 25 6b e6 bd
       0.05744829 0.060076065 -0.02827927 -0.11250905
0000c0 d2 db 34 3d a4 cc 13 3c b0 b8 5f 3d dd 70 bd 3b
       0.04415495 0.009020958 0.05461949 0.0057812766
0000d0 43 7f 51 bd 68 b3 e3 bd 46 b2 0f bd c8 8d 90 3d
       -0.051146757 -0.111182034 -0.035082124 0.070582926
0000e0 8e 39 f0 bd 97 f7 35 3b ec 21 27 bd e1 bf 83 bc
       -0.11729728 0.0027765983 -0.040803835 -0.016082706
0000f0 bb c9 83 bd cc 77 7a bd fe f8 42 bd 9f d5 04 3d
       -0.064349614 -0.061149403 -0.04760074 0.032430287
